…
Initializing ps: rank: 0 | world size: 36 | ParameterServerIP: 10.0.0.1:9999 | Interface: h0-eth0 | Groups: [[0, 32, 33, 34]]
Process group successfully created.

-----------------------------------------------------
ps Global Rank: 0
Main Group: [[0, 32, 33, 34]]
Global Dst: 0

Workers: [32, 33, 34]

-----------------------------------------------------
Train Dataset is loaded:
Total Batches: 937

Test Dataset is loaded:
Total Batches: 156

----------------------------------------------------------------
        Layer (type)               Output Shape         Param #
================================================================
            Conv2d-1            [-1, 6, 24, 24]             156
              Tanh-2            [-1, 6, 24, 24]               0
         AvgPool2d-3            [-1, 6, 12, 12]               0
            Conv2d-4             [-1, 16, 8, 8]           2,416
              Tanh-5             [-1, 16, 8, 8]               0
         AvgPool2d-6             [-1, 16, 4, 4]               0
            Linear-7                  [-1, 120]          30,840
              Tanh-8                  [-1, 120]               0
            Linear-9                   [-1, 84]          10,164
             Tanh-10                   [-1, 84]               0
           Linear-11                   [-1, 10]             850
================================================================
Total params: 44,426
Trainable params: 44,426
Non-trainable params: 0
----------------------------------------------------------------
Input size (MB): 0.00
Forward/backward pass size (MB): 0.08
Params size (MB): 0.17
Estimated Total Size (MB): 0.25
----------------------------------------------------------------
Parameter-Server initialization done.
…
